android/app/src/main/assets/converted_model.tflite (tflite, 1656 bytes, 4 tensors)

FullyConnected/MatMul_bias f4 [6]
00000000: 5253 e33f a09e 38bf 02fd bc3f 0000 0000
00000010: ed2e 5cc0 0346 24c0
1.7759802 -0.7211704 1.4764712 0.0 -3.4403641 -2.5667732

FullyConnected/W/transpose f4 [6, 13]
00000000: 62ba e83f 5637 1f41 8706 5941 89e4 f140
00000010: 09ee 5e41 737c 5040 78bb 8641 d9d5 7441
00000020: ac9a 9041 3316 7641 988b ae40 a6c3 5641
00000030: ca40 2341 a9be 0a41 3f76 4c41 e6e4 5941
00000040: 6ce1 c540 10ff a440 61ea 6441 184f 163e
00000050: 2d17 c640 f55a 1541 57b3 2941 4e1b 2440
00000060: 00b2 0341 6e95 1441 0f15 6541 1f3d 1241
00000070: cfb4 6441 0452 7441 0eac 8541 89e6 2c40
00000080: 7b7f fd40 1411 0141 74f7 2641 8976 2f41
00000090: aaa5 a841 9997 2841 3c87 8a41 6cc8 b140
000000a0: dab9 4041 c0a9 023f 6e29 6641 848d 9240
000000b0: 3cae 6041 1c43 5741 d44d a040 80df 6c3f
000000c0: b4dc 7e41 a0de 643f 6034 ca3f 409e 7f40
000000d0: 3356 8640 6438 d540 5d89 a9bf 9778 dcbf
000000e0: 54cc e93f aaf6 953e b2bf 8e40 5345 8340
000000f0: 22e3 1e41 a78f 4641 6c32 ac40 8ed9 cd40
00000100: a084 a840 feba a340 834b 4341 4170 cc40
00000110: c56f 283d 1059 3a41 3f4d 0dbf 36e0 df40
00000120: 57f4 4841 c8d6 6740 8878 8140 5dcf a540
00000130: 7adc e740 04e5 ac40
1.818188 9.95101 13.564094 7.5591474 13.933114 3.2575958 16.841537 15.302209
18.075523 15.38042 5.4545403 13.422766 10.203318 8.671548 12.778869 13.618383
6.1837673 5.1561356 14.307221 0.1467861 6.190329 9.334706 10.606284 2.5641665
8.230957 9.286482 14.317641 9.139922 14.294143 15.270023 16.709011 2.7015707
7.9218116 8.066669 10.435413 10.966439 21.08089 10.537011 17.316032 5.5557156
12.045374 0.5104027 14.385115 4.579775 14.042538 13.453884 5.0095005 0.92528534
15.928883 0.894022 1.5797234 3.9940338 4.1980224 6.6631336 -1.3245045 -1.7224301
1.8265481 0.29289752 4.4609003 4.1022124 9.930452 12.410071 5.381155 6.432807
5.2661896 5.116576 12.2059355 6.388703 0.041122217 11.646744 -0.55195993 6.9961195
12.559653 3.6224842 4.0459633 5.181563 7.2456636 5.402956

my_output/MatMul_bias f4 [3]
00000000: 0f9e 3640 955d 2a40 fc2c 38c0
2.8533971 2.6619618 -2.8777456

my_output/W/transpose f4 [3, 6]
00000000: 0b49 1741 6e35 1f41 42e1 1b41 1cd1 ad40
00000010: dbcc b740 a22d ee40 1c9a 4841 40de 1741
00000020: db45 c140 486d af40 416f 6040 2821 d440
00000030: 39d8 4841 9df9 5341 0ba5 5d41 7c13 3941
00000040: f30d da40 135b 2f41
9.455333 9.950544 9.742495 5.431776 5.743757 7.4430704 12.537624 9.49176
6.0397773 5.48209 3.5067904 6.6290474 12.552789 13.248441 13.852794 11.567257
6.814203 10.959735
